…
urther layers use more filters due to the pooling shrinking the images \n# allowing more depth\nmodel.add(layers.Conv2D(64, (3, 3), activation='relu'))\nmodel.add(layers.MaxPooling2D((2, 2)))\nmodel.add(layers.Conv2D(64, (3, 3), activation='relu'))\n# print(\"Num GPUs Available: \", len(tf.config.list_physical_devices('GPU')))\nmodel.summary()\nModel: \"sequential\"\n_________________________________________________________________\n Layer (type)                Output Shape              Param #   \n=================================================================\n conv2d (Conv2D)             (None, 30, 30, 32)        896       \n                                                                 \n max_pooling2d (MaxPooling2D  (None, 15, 15, 32)       0         \n )                                                               \n                                                                 \n conv2d_1 (Conv2D)           (None, 13, 13, 64)        18496     \n                                                                 \n max_pooling2d_1 (MaxPooling  (None, 6, 6, 64)         0         \n 2D)                                                             \n                                                                 \n conv2d_2 (Conv2D)           (None, 4, 4, 64)          36928     \n                                                                 \n=================================================================\nTotal params: 56,320\nTrainable params: 56,320\nNon-trainable params: 0\n_________________________________________________________________\n# flatten 4,4,64 to a single vector\nmodel.add(layers.Flatten())\n# feed it into a dense layer\nmodel.add(layers.Dense(64, activation='relu'))\n# do the 10 object classification\nmodel.add(layers.Dense(10))\nmodel.summary()\nModel: \"sequential\"\n_________________________________________________________________\n Layer (type)                Output Shape              Param #   \n=================================================================\n conv2d (Conv2D)             (None, 30, 30, 32)        896       \n                                                                 \n max_pooling2d (MaxPooling2D  (None, 15, 15, 32)       0         \n )                                                               \n                                                                 \n conv2d_1 (Conv2D)           (None, 13, 13, 64)        18496     \n                                                                 \n max_pooling2d_1 (MaxPooling  (None, 6, 6, 64)         0         \n 2D)                                                             \n                                                                 \n conv2d_2 (Conv2D)           (None, 4, 4, 64)          36928     \n                                                                 \n flatten (Flatten)           (None, 1024)              0         \n                                                                 \n dense (Dense)               (None, 64)                65600     \n                                                                 \n dense_1 (Dense)             (None, 10)                650       \n                                                                 \n=================================================================\nTotal params: 122,570\nTrainable params: 122,570\nNon-trainable params: 0\n_________________________________________________________________\n# Train!\nmodel.compile(optimizer='adam',\n              loss=tf.keras.losses.SparseCategoricalCrossentropy(from_lo
…
